checkpoints/Linear_Model.pth (torch, 33856 bytes, 4 tensors)

layer_stack.1.weight f4 [10, 784]
000000 14 cd f3 3c bb 83 73 bc fd a5 a3 bc 7a 4a 4f bc
       0.029760875 -0.01486295 -0.01997661 -0.012652034
000010 ab 36 09 3d 08 04 72 3c 27 2b 5d 3b c1 3c 03 bc
       0.0334994 0.014771469 0.0033747645 -0.00801009
000020 fd 7f 0e 3d e2 98 27 3c 09 7c b3 3d 67 35 e4 3d
       0.034790028 0.010229321 0.08763892 0.11142998
000030 f3 5a 4c 3d 0a 6d a4 3b 4c 9a 1d bd 42 45 ee bc
       0.049891423 0.0050178813 -0.038477227 -0.02908576
000040 85 1d 44 3d 7f 8f d0 3d 9b be d8 3d f4 48 cc 3c
       0.047879715 0.1018362 0.1058323 0.02493713
000050 72 de e4 3c 51 1b 82 bb ec 0b c7 3c 29 ef a0 bc
       0.027938101 -0.0039705415 0.024297677 -0.01964529
000060 3c 03 9f bc 24 f1 85 bc f0 f0 3c bc 4e 8e a8 bb
       -0.019410722 -0.016350336 -0.011532053 -0.005143917
000070 da 6f cd bb 9f 8a 4d 3a c8 30 e9 3c a9 5d 08 bc
       -0.0062694373 0.00078407855 0.028465644 -0.008323112
000080 cc 1d e1 bc 13 e1 40 3c c2 52 99 3b 47 df 44 3d
       -0.027480029 0.011772412 0.004679055 0.048064496
000090 82 8b c0 3d 64 a6 ce 3d 60 60 f4 3d 38 dd 9b 3d
       0.09401609 0.1009033 0.119324446 0.076105535
0000a0 55 d7 67 3d 53 8e 35 3d ac b8 d1 3d 94 16 84 3d
       0.05660184 0.044325184 0.102403015 0.06449619
0000b0 63 99 7d 3d 75 a5 22 3e 9d b8 07 3e 22 8b eb 3d
       0.06191386 0.1588343 0.13254018 0.11501147
0000c0 af bb a8 3d 8f ba 34 39 44 f0 56 ba ae 16 4a bc
       0.08238923 0.00017235636 -0.00081992545 -0.012334509
0000d0 46 04 04 bd ee a6 d1 ba 24 7d 16 bc 7a c9 bc 3c
       -0.032230638 -0.0015995183 -0.009185109 0.02304529
0000e0 ed c9 af 3c a5 df 41 3c 48 ce ed ba ca ac c9 3c
       0.02145859 0.011833106 -0.0018143142 0.024618525
0000f0 f3 cd ed 3c d3 29 49 3d db 29 e0 3d 50 58 ae 3d
       0.029028868 0.049112152 0.10945483 0.08512938
000100 31 52 a1 3d d0 26 ae 3c 4d 7c 37 3d 1e d1 03 bc
       0.07877005 0.021258742 0.044796277 -0.008045463
000110 aa 0c 07 3d 57 8b 48 bb f4 8e b6 3c 16 f4 9b 3c
       0.03297106 -0.003060063 0.022284962 0.019037288
000120 b4 45 fb 3c b9 cf f0 bb be ad 23 3d 2a 5b 8a 3d
       0.030672885 -0.007348981 0.039960615 0.067556694
000130 aa 29 e5 3d b9 8d f6 3d b0 61 42 3d 2b 7d a9 bc
       0.111895874 0.1203875 0.047456443 -0.020689568
000140 55 95 0c bd 0b d0 8b 3c 8f 3d 55 3c b6 40 b4 bb
       -0.0343221 0.017066976 0.013015165 -0.005500878
000150 b9 1d 05 bd 53 b0 d6 bc 42 63 be bc b3 a4 8e b9
       -0.03249905 -0.026207125 -0.02324069 -0.0002720706
000160 e3 c0 0b 3b 20 68 bc 3d 33 f8 ae 3d 68 a1 1b 3c
       0.0021324686 0.09199548 0.08543434 0.0094989315
000170 0f d2 3f bd a4 f8 86 3c 77 ce 1e 3c 06 e0 ca bc
       -0.046831187 0.016475983 0.00969278 -0.024765026
000180 d5 94 be 3b f9 7f 40 3d dc b7 12 bc 5a d3 1e bc
       0.005816082 0.046997044 -0.008954968 -0.009693945
000190 4d ed e9 3c 3c fc 24 3d 93 37 fb 3b 90 eb a2 bb
       0.028555537 0.040279612 0.007666537 -0.004971929
0001a0 23 ff 80 bb 2c e3 86 3d 39 c9 df 3d 88 6b d0 3c
       -0.0039366647 0.06586298 0.10927052 0.0254419
0001b0 df f2 01 bb 9a e7 ef bc f6 5e a8 bc a1 49 45 bc
       -0.00198286 -0.02928524 -0.020553093 -0.01204148
0001c0 e7 56 b8 bc a7 d4 0e 3c 25 b1 9f bc 42 52 77 3c
       -0.022502376 0.008717692 -0.019493649 0.015095295
0001d0 b2 ae 29 3b 47 66 84 3d 6d 9e 3b 3d e1 3e 68 bc
       0.002589148 0.0646482 0.045805383 -0.014175148
0001e0 27 90 9d bb e3 aa 95 3c d8 4b e5 3c b8 48 d0 3c
       -0.004808444 0.018269962 0.027990267 0.0254253
0001f0 25 5a 9c bc 05 a2 0a 3c 12 09 1c ba 31 e5 09 3d
       -0.019085953 0.00846148 -0.00059522793 0.03366584
000200 b6 85 4b bc 0e ce a1 3c 4f 12 08 3d f7 20 97 3b
       -0.012422016 0.019751575 0.033220585 0.004612084
000210 6e 62 e1 bc ef 0d 3e 3d 82 de 91 3d e3 bb 90 3d
       -0.027512755 0.046400007 0.07122518 0.070670865
000220 db 84 39 3c 04 23 da 3c 23 c6 32 3b 16 d4 af 3b
       0.011323179 0.026628025 0.0027278743 0.005365859
000230 48 47 c0 bb 06 8e 4c 3c 49 0b 84 3c 20 2a a7 3c
       -0.0058678724 0.012485033 0.016118662 0.020405829
000240 cc e5 a0 3d eb c1 25 3d 16 c9 e5 3c a4 be 7b 3c
       0.0785633 0.040468138 0.028049987 0.0153652765
000250 c5 e0 21 3c da f3 09 3d 94 06 0c 3d fa ee 0f bc
       0.009880249 0.03367982 0.03418596 -0.008785004
000260 8e 94 a7 bc 39 1e f9 ba d6 13 ee 3c 33 cc 6b 3d
       -0.020456579 -0.00190062 0.029062193 0.057567786
000270 0f 6e 18 3d ed 7b 39 3d 93 ac 00 3d e7 12 10 3d
       0.037214335 0.0452842 0.03141458 0.035174277
000280 35 a8 ff 3c 50 2b 53 3d 41 b4 93 3d 62 33 0b 3d
       0.031208137 0.051554978 0.07212115 0.03398455
000290 09 81 1c 3d 05 ed b4 3b c4 65 07 bd a6 89 44 3c
       0.038208995 0.005521419 -0.033056036 0.011995709
0002a0 cf 2c f9 bc 33 5d 02 3c b7 da 23 3c 1c 71 83 3c
       -0.030416874 0.007956791 0.010000876 0.016045146
0002b0 b1 b0 df 3c 5e ac 86 3d 32 4c c1 3c 73 7b ae 3b
       0.027305933 0.06575845 0.023595903 0.005324775
0002c0 c7 b9 39 3c 33 56 2f bc 2f 1a b0 3c 2f e0 3e bc
       0.011335797 -0.010701704 0.02149686 -0.011650129
0002d0 ba 55 fb 3b aa fe 6d bb fe 30 9c bb e7 4f 93 3d
       0.0076701315 -0.0036315122 -0.0047665825 0.071929745
0002e0 99 e2 1c 3d 77 72 2f 3d 46 b8 04 3d 6d 97 53 3d
       0.038302038 0.04283377 0.0324023 0.051658083
0002f0 7f e2 dd 3c df 18 57 3d 30 08 46 3d 80 f0 cc 3d
       0.02708554 0.052513953 0.048347652 0.10006809
000300 dc af 96 3b 2d e6 84 bc 80 e5 0e 3c 8a 3a b3 3c
       0.004598601 -0.016223038 0.008721709 0.0218785
000310 61 c1 49 3c 7b 27 de bc 9d 39 84 bc ad d0 c0 bb
       0.0123141715 -0.027118435 -0.016140753 -0.005884251
000320 86 e8 46 3c d5 d0 63 3c 6f 32 72 3b ee fb 75 3c
       0.012140399 0.01390477 0.003695633 0.015013678
000330 a5 5e 70 bc 6c 7e 1c 3d 41 7b 11 3c 30 91 04 bd
       -0.0146710025 0.038206503 0.008879484 -0.032365024
000340 20 e9 02 bd 39 1d c7 bb f9 fe 3c 3d 42 41 43 3d
       -0.031960607 -0.0060764817 0.0461416 0.047669657
000350 dc 51 c2 3c c3 7c 6d 3d 48 b1 45 3d d6 d6 58 3d
       0.023720674 0.05798031 0.04826477 0.05293926
000360 81 cb eb 3c e2 43 78 3d 27 bc 57 3d 91 ea bf 3d
       0.028783562 0.060611613 0.05266967 0.09370912
000370 f3 4e 3e 3d e9 5a b9 3c 5e 7c 22 bd 26 68 80 3b
       0.04646201 0.022626357 -0.039669387 0.0039186655
000380 2b 4d 02 bd 5c 4f 0b bd 5a 64 6a 3c c2 7a 1e 3d
       -0.031811874 -0.03401123 0.014306152 0.03869129
000390 0a f9 97 3c 0e d7 2b bc c7 40 2d 3c 9e 89 69 3c
       0.018551368 -0.010488285 0.010574526 0.014254002
0003a0 a0 77 a2 bc 72 99 8f 3a 8f 4b a5 3c e0 d0 75 bd
       -0.019832432 0.0010955764 0.02017763 -0.06001365
0003b0 a5 d3 c9 bc 91 40 2d bd fc 49 b8 3c 83 84 bc 3d
       -0.024637053 -0.042297903 0.022496216 0.09204962
0003c0 ca f9 a1 3d 77 1b ab 3d f5 65 91 3d b0 9e c9 3d
       0.079089716 0.08354848 0.07099525 0.0984472
0003d0 91 b6 98 3c ff 16 ab 3d ac ab c1 3d 28 35 c9 3d
       0.018641742 0.083539955 0.09456572 0.09824592
0003e0 ee 08 26 3d 5a cc 04 3d 37 6f 04 bc 78 97 25 bd
       0.04053586 0.032421447 -0.008083156 -0.040427655
0003f0 fc 18 8e bc bd ff 0c bd ac 67 67 bc 86 53 00 3c
       -0.017345898 -0.03442358 -0.014123838 0.007832414

layer_stack.1.bias f4 [10]
000000 57 2c 9f bd 5c 9c 9e bd 96 c1 7c be 6c fd 46 be
       -0.07772129 -0.07744667 -0.24683222 -0.1943261
000010 99 f6 57 be 0c 50 92 bc ab ad 14 3d fa 90 f9 bb
       -0.21090163 -0.017860435 0.036298435 -0.0076161595
000020 d5 34 11 bd e5 45 fd bd
       -0.035450775 -0.12366847

layer_stack.2.weight f4 [10, 10]
000000 5b 9d de 3e 98 64 05 bf 95 e4 91 3e 33 00 1c 3e
       0.43479428 -0.5210662 0.28494707 0.15234451
000010 a7 64 e8 be 60 54 f0 be 47 7d a1 be c3 13 4e be
       -0.45389292 -0.46939373 -0.31540892 -0.20124726
000020 54 c7 51 3e e8 2c a6 3e 35 d8 d5 3e 1c d1 b7 3e
       0.20486194 0.32456136 0.41766515 0.35901725
000030 0b 45 9b be b0 bc 03 3f 92 68 31 3e 28 d0 c0 be
       -0.30326113 0.5145979 0.17325047 -0.3765881
000040 68 8b 2b bf f0 19 0e 3f 33 47 b7 3e 43 3a 68 be
       -0.6700959 0.5550833 0.35796508 -0.22678475
000050 11 1b 2e 3e 19 87 cb 3e 5a 52 51 be 20 10 44 bd
       0.17002513 0.3975151 -0.20441571 -0.04786694
000060 55 fc 97 be bc 3c 77 be b0 01 21 3f 14 99 ce 3d
       -0.29684702 -0.24144262 0.628932 0.10087791
000070 fd e0 a9 3e ca ee 55 3e 25 e8 bd be ca bb c0 bd
       0.33179465 0.20891872 -0.37091175 -0.09410818
000080 e3 bf ea be 83 69 1d 3e 68 dc 86 bb 98 57 be 3e
       -0.45849523 0.15372281 -0.00411563 0.37176204
000090 29 34 1f be 72 b3 09 be a5 2f 32 3f b8 7c 92 bd
       -0.15547241 -0.13447359 0.6960395 -0.071526945
0000a0 a6 a8 98 be 03 4f 97 3e d9 e2 95 3e 0e 08 01 3f
       -0.2981617 0.2955247 0.29274634 0.50402915
0000b0 ab cb b4 be 87 e3 f6 3e 1e 8f 7e 3e eb fd d7 3e
       -0.35311636 0.48220465 0.24859282 0.42185912
0000c0 d7 01 00 3d 09 46 ca 3e 30 d8 b8 be 5e 48 87 be
       0.031251755 0.39506558 -0.36102438 -0.264224
0000d0 a4 d8 e6 be 41 6f 16 bf e1 61 f9 be f3 cb 24 3d
       -0.4508716 -0.5876351 -0.48707488 0.040233564
0000e0 24 94 05 3f 50 7d a0 3e 75 6e fe be b3 f2 00 bf
       0.5217917 0.31345606 -0.49693647 -0.5037033
0000f0 63 b4 a0 be ab 11 f0 bd 2b 61 48 bd 5e 99 9a 3e
       -0.31387624 -0.1172212 -0.04892079 0.30195135
000100 d3 59 26 bf f4 49 bc be 18 21 0e 3e 46 53 1a be
       -0.6498081 -0.36775172 0.13879812 -0.15070829
000110 bb 6e b1 3d 29 00 96 3e a5 f3 02 bd 09 b6 50 3e
       0.08663698 0.29296997 -0.03197064 0.20381941
000120 60 96 f1 be 60 4d 01 3e c9 4f c8 3e 23 07 20 bc
       -0.4718504 0.12627172 0.3912337 -0.0097673265
000130 50 26 c0 be 30 b3 f6 3e 3f 83 43 bf ce fe 18 bf
       -0.3752923 0.48183584 -0.7637214 -0.597638
000140 81 c7 29 bf 22 58 01 bf 46 a0 11 3f ab 45 77 3e
       -0.66320044 -0.50525105 0.5688518 0.2414767
000150 85 46 c5 3e a9 7a 25 be 85 86 5a 3e bd 83 98 3e
       0.38530365 -0.16160072 0.21340378 0.29788008
000160 1e 1a a1 be fe c1 93 3e a2 7d e8 3e 8e ea 3f be
       -0.31465238 0.28858942 0.4540835 -0.1874182
000170 df 7c c6 3e cb 9e 7c be ee c5 ab 3e 6f 1e d2 bd
       0.38767144 -0.2466995 0.33549446 -0.10259711
000180 0a 60 5a 3d 35 93 85 bd f9 74 05 bf 9c eb 14 bf
       0.053314246 -0.06522218 -0.5213161 -0.5817201

layer_stack.2.bias f4 [10]
000000 2f c3 20 be 40 b0 7c be e5 1b a2 bd 5d 1d 83 ba
       -0.15699457 -0.24676609 -0.07915477 -0.0010003258
000010 76 86 81 be d6 b0 26 3f 6a a1 37 3e 9b ee 24 3e
       -0.25297898 0.6511358 0.17932668 0.16106646
000020 36 61 40 be 39 5e c3 3d
       -0.18787083 0.09539456
