checkpoints/NonLinear_Model.pth (torch, 34064 bytes, 4 tensors)

layer_stack.1.weight f4 [10, 784]
000000 a2 ae df 3c 2e d6 f2 3c cc 14 09 bc 5b 61 06 3d
       0.027304951 0.029643144 -0.008366775 0.03280769
000010 ab 38 00 bc 27 2a ec 3b 72 6a 8e bc 5f d7 ab 3c
       -0.007826011 0.0072071734 -0.017384741 0.02097672
000020 63 5e 01 3d 2d bb d4 bc b3 cf 01 3d 3c dd 02 3c
       0.031584155 -0.025968159 0.031692218 0.007987317
000030 0f 13 dd 3c 66 35 a5 3b aa 59 8e 3c 04 60 9d bb
       0.026986627 0.005041766 0.01737674 -0.0048027057
000040 4b 32 e9 3c f5 55 d1 3b e7 e7 87 bc e2 b4 12 3c
       0.028466364 0.0063884207 -0.016590072 0.008954259
000050 dd 1f 88 bc 9b dd 8d bb 95 49 6f bc e5 e2 c1 3c
       -0.016616756 -0.004329396 -0.014604946 0.023667762
000060 9a 3d e7 bc ad 0e 87 bc 35 3b 25 bc 48 ea af bc
       -0.028227616 -0.01648649 -0.010084917 -0.021474019
000070 10 e9 5c 3b bd 7b 10 bd a9 1c 04 3d 47 87 f8 bc
       0.0033708252 -0.035274256 0.032253895 -0.030337943
000080 60 df e1 3c 10 f1 c2 3b ac 4b 3c bc 81 99 b7 3c
       0.027572334 0.005949147 -0.011492651 0.022412064
000090 84 69 cc 3b 48 c1 f2 3c b9 26 96 3b d8 3a 28 bc
       0.0062381644 0.02963318 0.004582253 -0.010267936
0000a0 41 78 31 3c b7 15 08 bc 5a 1e 87 3c 5c f1 06 3d
       0.010831893 -0.0083059585 0.016493965 0.032945022
0000b0 24 40 b0 3c 95 9b 7a bc 67 9a aa 3c 55 3c da 3b
       0.02151496 -0.015295883 0.020825578 0.006660024
0000c0 d8 4d 95 3c ed 1a b3 bc a1 60 11 bd f6 fc 62 bc
       0.018225595 -0.021863425 -0.035492543 -0.013854256
0000d0 99 ca e0 bc 35 ca ef 3c b0 8d 28 3c a8 6c 72 3c
       -0.027440356 0.029271225 0.010287687 0.0147964135
0000e0 d8 0e 39 3c c0 dd 22 ba 64 f8 e4 3c 0a e0 cf bc
       0.011295043 -0.0006212853 0.027950473 -0.025375385
0000f0 08 d8 13 3b ba d6 c6 bc ef 26 3b 3c 90 b6 40 bc
       0.0022559185 -0.024272311 0.011422857 -0.011762276
000100 ed 59 3a 3c 80 c2 e8 bb d6 8a f3 3c ea e9 ad bc
       0.011373979 -0.0071032643 0.029729288 -0.021229703
000110 a5 a9 ae bc 8b 65 b0 bc c3 fb 01 3d d3 08 3c 3c
       -0.021321127 -0.021532794 0.03173424 0.011476713
000120 34 22 0b 3d d6 d0 f3 bc 42 84 11 bd 29 aa e4 bc
       0.033968166 -0.029762667 -0.03552652 -0.02791317
000130 e4 ff c4 bc 88 bc 6d 3c de f5 50 3c d5 32 f2 3c
       -0.0240478 0.014510281 0.012753932 0.029565254
000140 67 7e 97 bc fc d6 c7 bc 24 15 9b 3c 17 87 6c bc
       -0.01849289 -0.024394505 0.01893098 -0.014436505
000150 8e 91 b1 3c d2 da 0a bc 8c 5d a7 3c bd 40 e3 bc
       0.021675851 -0.008475022 0.020430349 -0.02774083
000160 99 1e 93 bc 0e f7 35 3c b5 48 02 3c aa fb 11 bc
       -0.017958926 0.011106266 0.007951905 -0.008910099
000170 99 ad af 3c 8d 47 c8 3c 33 1e d3 bc 35 da 9a bc
       0.021445083 0.02444818 -0.025771236 -0.018902877
000180 ff b8 04 3d 6a e6 4d bc e8 96 56 bc de 45 0f bd
       0.03240299 -0.012567142 -0.013097502 -0.03497874
000190 ee 2b ac bc 9f 1b 0b 3c 10 b3 a7 bb 6d 2b d7 bc
       -0.021017041 0.008490472 -0.0051177815 -0.026265824
0001a0 f8 3b ab 39 8d b9 ca bc a9 93 f9 bc 5c d1 a2 bc
       0.00032660342 -0.02474668 -0.030465918 -0.019875221
0001b0 f4 68 00 bd ef c2 ba bc 2f 1a 12 3d ca 08 dd 3b
       -0.03135009 -0.02279803 0.035669502 0.0067454325
0001c0 44 51 34 3c 3f 70 08 bd 2b 27 c0 bc 3e 7d 42 bc
       0.011005703 -0.03331017 -0.023456177 -0.01187068
0001d0 c8 a7 b9 3b c1 6b ff bc fb f1 78 bc 58 0e ad bc
       0.005665753 -0.03117931 -0.015194411 -0.021125004
0001e0 cd ee c7 39 9c 3e 57 bc 92 2d 1b bb bd 77 c5 bc
       0.00038134158 -0.013137486 -0.0023678285 -0.024104947
0001f0 aa d2 c8 bc 45 40 ab bc 00 f6 50 bc 1a 1e ec bc
       -0.024514515 -0.02090467 -0.0127539635 -0.028822947
000200 84 76 f0 3c 52 3b 00 bc 91 76 f5 3c 22 33 29 3c
       0.029353388 -0.007826643 0.029963763 0.010327132
000210 9e 06 fe bc 10 88 c5 3c b6 bb 26 bc 30 b4 63 bc
       -0.031009015 0.024112731 -0.01017659 -0.0138979405
000220 35 7d f4 bc d6 9e 11 bd 69 88 26 3c 43 fa ff bb
       -0.02984486 -0.03555187 0.010164359 -0.007811816
000230 44 cf 63 3c 73 fb ef bc b6 5d d9 3c d9 95 d6 bc
       0.013904396 -0.029294705 0.026533943 -0.0261945
000240 bf 10 c7 bb a9 cd fb 3b f0 31 99 3c 20 68 ef 3c
       -0.0060749943 0.0076844287 0.01870057 0.029224455
000250 a2 2f 06 3d 90 53 e6 bc 11 95 16 3c 60 97 78 bc
       0.03276027 -0.028116018 0.009190814 -0.015172809
000260 5b d7 7d bb e9 94 dc bc d0 9d 02 3d ce 41 da bc
       -0.0038733098 -0.026926475 0.031888783 -0.026642706
000270 49 19 97 3c 22 f3 42 3c ae 88 34 3c 26 bd a5 bc
       0.018444674 0.011898788 0.011018915 -0.020231795
000280 00 cb 01 3d ca 71 ee 3b c7 c7 82 3b b7 9d 02 bd
       0.031687737 0.0072767483 0.0039911005 -0.03188869
000290 58 00 6d 3c b5 51 b5 bb ad 51 86 bc 29 4e fb 3c
       0.014465414 -0.005533422 -0.016396368 0.030676918
0002a0 f8 74 02 3c b8 ce a1 bc c0 07 94 bc f3 a9 dd ba
       0.007962458 -0.019751891 -0.018070102 -0.0016911611
0002b0 34 f8 a3 3c 16 cd 11 bc 07 19 a4 bc f3 0a 42 bc
       0.020015813 -0.008898994 -0.020031465 -0.011843431
0002c0 51 7b d7 bc 3b e6 54 3c e0 22 e5 3c 57 ec 08 bd
       -0.026303919 0.012994344 0.027970731 -0.033428516
0002d0 6d 74 08 3c e2 3a 95 3c 19 da c9 3b 15 58 57 bc
       0.008328539 0.018216554 0.0061600325 -0.013143559
0002e0 5e 19 93 3c 08 30 94 3c af 11 54 3c 1f 16 d7 bb
       0.017956432 0.01808931 0.012943669 -0.0065639163
0002f0 54 4e 24 bc 3c 96 4f 3b c1 19 e8 bb 0d 54 36 bc
       -0.0100284405 0.003167524 -0.007083148 -0.011128438
000300 48 ea b5 3c e2 23 f8 3c fc 77 6f bb 23 ae 03 bc
       0.02220644 0.030290548 -0.0036540022 -0.008037123
000310 80 a2 08 3a ac bb 0b bb d7 ae 0c 3c 2e 6e 24 3c
       0.00052122027 -0.0021321578 0.008586607 0.0100360345
000320 f9 95 04 bd cf 39 54 bc e1 e9 f8 3c 71 e3 6a 3c
       -0.032369588 -0.012953236 0.03038496 0.014336453
000330 2c 98 a1 ba b6 5d ae bc 18 d4 b0 bc 92 e5 01 bd
       -0.0012328676 -0.02128492 -0.02158551 -0.031713076
000340 cf 00 3e bc 77 df 42 3c 18 ec b7 3c 76 cc 84 3c
       -0.0115968725 0.0118940985 0.022451445 0.016210776
000350 ff 7b 02 bd e6 2d b2 bc 52 27 bf bb 57 55 0c 3d
       -0.031856533 -0.021750402 -0.005833545 0.034261074
000360 a5 2a 9b 3b b6 46 21 bc 5d f7 66 3c ee 41 66 bc
       0.0047353082 -0.009843519 0.014097062 -0.014053805
000370 ec 84 c2 bc 6c 0c d1 3c f8 1a 87 bc 60 f1 eb bb
       -0.023745023 0.025518619 -0.016492352 -0.007200405
000380 b6 86 11 bd 6c d4 c3 3c b6 c2 dd 3c 66 1b 56 3c
       -0.03552886 0.023905002 0.027070384 0.013068056
000390 5d 26 cb bc 69 6f 0f bd 08 35 eb bc a1 ea dd 3c
       -0.024798566 -0.03501836 -0.02871181 0.027089419
0003a0 cf d4 91 3c 0a 3d f8 3c 30 ca 9b 3c bf a7 18 3c
       0.01780167 0.030302543 0.019017309 0.009317338
0003b0 d5 17 a8 b9 dd 69 df bc 92 bc fc bc 6e 6f 09 bd
       -0.00032061213 -0.02727216 -0.030851636 -0.033553533
0003c0 c0 2b 6d 3c 2d f0 91 bc b2 78 f9 bb 10 32 ab bc
       0.014475763 -0.01781472 -0.007613265 -0.020897895
0003d0 8e 43 e5 bb 5b f0 d3 bc e5 a6 c4 bc ea 44 34 3c
       -0.0069965785 -0.025871446 -0.024005363 0.0110027585
0003e0 18 c9 3b bc 66 db ad 3c bf 93 43 bc 41 30 d7 bc
       -0.011461519 0.021222781 -0.011937081 -0.026268126
0003f0 5e 79 ce bb a8 c7 8d bc 0b ca 32 bc 33 1c 0b bd
       -0.006301089 -0.017307118 -0.010912429 -0.03396244

layer_stack.1.bias f4 [10]
000000 cc bb 84 bc 8a 76 66 bc 86 c8 96 3e c9 5a 5c 3d
       -0.01620283 -0.014066348 0.29449862 0.053797517
000010 47 43 29 3d dc c1 d1 3c 7f c4 ef bd 13 15 44 3d
       0.041323926 0.025605135 -0.117074005 0.04787166
000020 d0 59 3e bd f0 0c 0a 3e
       -0.04647237 0.13481498

layer_stack.3.weight f4 [10, 10]
000000 c3 74 7b 3d fc f5 f2 be 84 ce 81 be 33 46 11 3f
       0.06139065 -0.47453296 -0.2535287 0.5674774
000010 ff 9e b0 3e 3b 43 dd 3d 63 15 9f be 55 1c e2 bd
       0.34496304 0.10803839 -0.31071004 -0.1104056
000020 4c 8d 50 be 4b a3 13 3f 5f 36 19 be 22 b1 09 3f
       -0.203664 0.5767104 -0.14962147 0.5378591
000030 99 1f 89 be 2a f8 38 3f 8b ab e8 bd 59 74 80 be
       -0.2678192 0.7225367 -0.11360844 -0.25088766
000040 e3 f7 2e bf 4f 5a 64 bc 64 01 0b 3e a6 9a 00 bf
       -0.68346995 -0.013937547 0.13574749 -0.50235975
000050 77 ba 7e 3e 62 08 3b 3e 8a 28 55 3e 1e 42 c6 3e
       0.24875818 0.18264917 0.20816246 0.38722318
000060 f5 38 f4 be 13 ed 6c bd 08 f5 00 3f b1 1c 16 3e
       -0.47699705 -0.05784328 0.5037389 0.14659382
000070 d5 15 2d bf 2b de 19 be ad fc 6b 3e cb 26 8b be
       -0.6761144 -0.15026157 0.23045607 -0.27178034
000080 33 a6 00 3e 39 79 85 bd 33 7d b4 3c bb de 1d 3e
       0.125634 -0.06517262 0.022032356 0.15416996
000090 77 37 05 3d b3 80 50 be eb 5a 37 bd 4d 01 97 be
       0.0325236 -0.20361595 -0.04476444 -0.2949318
0000a0 b8 a5 23 be 60 0e d5 bd 0e 56 93 be b1 ef bf 3e
       -0.15981185 -0.104031324 -0.28776592 0.37487558
0000b0 df 0b c1 be b0 3d 87 3e f3 85 2a 3f 12 60 ca 3d
       -0.3770437 0.2641425 0.6661064 0.09881605
0000c0 b9 1c 84 3e 35 f2 07 bf ed ea 8a be 18 e7 78 be
       0.25803164 -0.53103954 -0.2713236 -0.24306905
0000d0 2a fd 4a 3f 07 05 f0 bd e0 f3 d1 be b5 03 a0 3e
       0.7929255 -0.11719709 -0.41006374 0.31252828
0000e0 36 f2 5a bd 7f 53 5f 3e 67 cb c1 bd ff 0c e9 3c
       -0.053453647 0.21809195 -0.09462624 0.02844858
0000f0 5a 57 f2 bd aa eb e7 be d2 10 d5 be 53 21 74 3d
       -0.11833067 -0.45296985 -0.41614395 0.059602093
000100 41 63 ae 3d 91 75 07 be 38 5f 28 3f 31 48 02 3e
       0.08515025 -0.13228442 0.6577029 0.12722851
000110 e6 c4 e3 be 90 51 22 3d d3 89 8b 3e 2d da 01 be
       -0.4448616 0.039628565 0.2725359 -0.12680884
000120 6c 79 86 3e 2b 0b e6 bd 7f 1b 93 be 1b 6e 54 be
       0.26264513 -0.11232599 -0.28731915 -0.20745127
000130 56 9f dc be 41 b9 b9 bd e6 37 5b 3f 25 7c 08 bf
       -0.43090314 -0.090685375 0.8563217 -0.5331443
000140 ae d4 2d 3d 64 bd cd be 52 19 2b be 88 3d e6 be
       0.042439155 -0.40183556 -0.16708878 -0.4496882
000150 98 a1 0d bf be cf 93 3d c2 12 da 3e 96 66 43 be
       -0.553247 0.07217358 0.42592436 -0.19082102
000160 08 79 da 3e e5 1e 34 3f 2a 1f 06 be da 5c 5f 3c
       0.42670465 0.7035964 -0.13097826 0.013632977
000170 20 2f fc bd f2 9d 04 3e 42 58 6e bd 63 5c 90 be
       -0.12313676 0.12950876 -0.058189638 -0.28195485
000180 e5 3e f3 bb 28 29 86 3e 38 43 39 bd 21 04 d0 bd
       -0.007423269 0.26203275 -0.04523012 -0.101570375

layer_stack.3.bias f4 [10]
000000 70 6e 65 bd e0 67 6e 3e c8 d9 3d 3e 8c db 24 be
       -0.056013525 0.23281813 0.18540108 -0.16099375
000010 cc 08 13 bd 70 11 3c 3f 6a e1 bd 3e e4 18 93 3e
       -0.03589706 0.7346411 0.3708604 0.28729928
000020 2f 14 ae be 7d 36 9b be
       -0.33999774 -0.3031501
