checkpoints/TinyVGG_Model.pth (torch, 34764 bytes, 10 tensors)

block_1.0.weight f4 [10, 1, 3, 3]
000000 4e 81 5f 3e 8e 17 05 3f 73 aa 0c bf 60 9c af be
       0.2182667 0.51989067 -0.54947585 -0.34298992
000010 f0 71 05 3f a9 f5 9d bd 3c 1f 26 bf a4 57 aa 3b
       0.5212698 -0.077128716 -0.6489141 0.005198436
000020 fa c4 39 3f a9 3d b4 be 38 4a 04 3f f0 77 2e be
       0.7256619 -0.35203293 0.5167575 -0.1703794
000030 b9 27 74 3e 0d 1a bd 3e 73 0e 04 ba 5b e1 8b 3d
       0.23843278 0.36933938 -0.00050375535 0.068300925
000040 71 84 6d 3d b4 8b dc 3d d2 dd cb be 5e e4 9b be
       0.057987634 0.10768834 -0.39817673 -0.30447668
000050 e3 07 01 3e 0f 6f a1 bf d3 51 96 bf 07 24 b2 3d
       0.12600665 -1.2612017 -1.1743721 0.08698278
000060 a7 77 9b bf cf 2b 98 bf 7e e8 76 be db d1 81 bf
       -1.214589 -1.1888369 -0.24112126 -1.0142168
000070 4b 94 e4 bf 2f 81 76 bf 2b 4d fc 3e 16 68 88 bf
       -1.7857755 -0.9629087 0.49277624 -1.0656765
000080 40 b1 c5 3e d8 0a 1e 3e 5c 6d 9e be 8f ba 3a 3f
       0.38611794 0.15433824 -0.3094281 0.72940916
000090 34 4d 8f be 0f 31 a8 3e 51 5e 2e bd 8a 2b dd be
       -0.2798859 0.3284993 -0.042570416 -0.4319728
0000a0 3a c0 d2 3e 5c fd f9 3b 47 b1 9d bd 09 f2 1d 3f
       0.41162282 0.0076290797 -0.076998286 0.6169744
0000b0 6f 59 b2 3e 89 74 1b be b9 80 35 3e 32 4d 4f 3d
       0.34833857 -0.15181173 0.17724885 0.05061073
0000c0 fa 69 3b 3e 1e 1c 4f be 40 95 a9 be 1b 45 fd bd
       0.18302146 -0.2022557 -0.3312168 -0.123666964
0000d0 a3 9e 83 be 33 4e 87 3e b6 a4 d5 3d 64 09 e6 3d
       -0.25706968 0.2642685 0.10431807 0.1123226
0000e0 de 28 fb bd 54 32 c9 3e 42 9f 38 3e af 76 1c bf
       -0.12263654 0.3929621 0.18029502 -0.61118597
0000f0 56 99 71 bd 27 ba 6a bf 5b 36 df be 6d 7a 9a bc
       -0.058984123 -0.91690296 -0.43596157 -0.018857205
000100 da f7 08 be da 22 c2 be e4 33 0b 3f cb 27 a6 be
       -0.13375798 -0.37917215 0.54376054 -0.32452235
000110 63 f8 52 bf 0b 25 b0 be b4 6f 20 3f c7 46 e3 3e
       -0.8241026 -0.34403262 0.62670445 0.44389936
000120 45 76 5a 3f 1e 8c e4 be 39 a1 60 bf ca 04 9f be
       0.85336715 -0.4463815 -0.87746006 -0.3105834
000130 0e 70 31 bf 53 6d 46 be 41 2b cc 3e 0b c9 34 3f
       -0.69311607 -0.19377641 0.3987675 0.7061927
000140 a6 d0 1a bc d6 15 66 be 8e 39 36 3e c4 b8 07 be
       -0.00944916 -0.22469267 0.17795393 -0.13254076
000150 2e 19 4f 3e 8f 35 a1 bd 06 30 46 3e 45 bc 84 be
       0.20224449 -0.078715436 0.19354257 -0.25924888
000160 9c 97 2c be 0f d1 d6 3d
       -0.1685471 0.104890935

block_1.0.bias f4 [10]
000000 2a ff 17 bd 11 b2 01 be 78 6f c2 3e 94 06 78 3e
       -0.037108578 -0.12665583 0.3797567 0.2422126
000010 87 2d 0f bf cd 88 4b be e5 72 14 3e 8e cd 71 be
       -0.55928844 -0.19876404 0.14496954 -0.23613569
000020 82 76 73 be 01 7c a4 be
       -0.23775676 -0.32125857

block_1.2.weight f4 [10, 10, 3, 3]
000000 1d 8d ae bc eb af 7f 3e 1d af 1f 3e 58 92 56 be
       -0.021307522 0.24969451 0.15594144 -0.20954263
000010 33 84 7a be 9b d7 33 be 28 a9 3f be 9b dd 23 be
       -0.24464492 -0.17562716 -0.18716872 -0.16002505
000020 e3 15 df 3c 4d e8 b4 3d 61 51 93 3c d6 57 7c bd
       0.027232116 0.0883337 0.01798314 -0.061607204
000030 19 1d 62 be 19 2c 9d be cc ff 36 be 05 57 60 bd
       -0.22081412 -0.30697706 -0.17871016 -0.05477049
000040 59 99 49 be 44 c2 d9 bd 64 08 e3 bd ba 58 e9 3d
       -0.19687404 -0.10632756 -0.11085585 0.113938764
000050 04 97 5a 3e 09 45 15 bd 9d a4 3b 3f 9d 02 04 3f
       0.2134667 -0.03644279 0.73298055 0.5156649
000060 03 d1 8d be 6c c8 0e bd 4c 9f 54 3e eb a6 b3 bd
       -0.27698526 -0.034859106 0.20763892 -0.087720715
000070 04 83 76 be fb 02 c4 be 1d b9 30 3e 8f c7 0d 3d
       -0.24073416 -0.38283524 0.17258115 0.034614142
000080 0d fd 98 be b6 f3 a2 3e 23 46 6a 3e 78 16 a1 3e
       -0.29880562 0.31826562 0.22878318 0.31462455
000090 1a a3 17 be c5 e5 0d be b9 8d 63 3c 63 07 64 bd
       -0.14808312 -0.13857181 0.01388877 -0.055671107
0000a0 0b a8 f7 3c 48 cc c7 bd ff 23 66 3d 30 68 c0 bd
       0.030231496 -0.097557604 0.056186672 -0.09394872
0000b0 06 aa 53 3c 21 a7 aa 3c 7a ba 57 3d e4 58 a9 3d
       0.012918955 0.020831646 0.052668072 0.08268908
0000c0 51 34 c7 3d 3d 20 ab bd 66 63 f1 3c a6 26 36 bd
       0.097267754 -0.08355758 0.029466342 -0.04447045
0000d0 cb 8f 83 bc 8c 59 9c bd 03 8e a4 3e 83 d1 04 be
       -0.016059777 -0.07634267 0.32139596 -0.12970547
0000e0 f3 dc 3e be f8 dd 8c 3e ad 93 0e 3d 4d 74 5b bd
       -0.18638973 0.275131 0.034808803 -0.05357771
0000f0 b8 23 8f 3d f2 5d 03 3a ae 08 94 bd 2f 98 b7 bd
       0.06989235 0.00050112524 -0.07228218 -0.089645736
000100 0c 07 fa 3c 98 d7 a7 bc 49 db fe bd 44 97 2a 3d
       0.030520938 -0.020488545 -0.12444169 0.041648164
000110 47 58 3c 3c 93 4f 1b be 73 d5 97 bd d2 fc 91 bc
       0.011495656 -0.15167074 -0.07413759 -0.01782075
000120 fa 6a 82 bd 0d d8 b7 3c a0 79 48 3b b4 e1 da bd
       -0.063680604 0.022441888 0.0030590072 -0.10687581
000130 8e 60 02 be 38 4d 59 3d 18 a0 62 3e 1d e3 88 be
       -0.12732145 0.053052157 0.22131383 -0.26735774
000140 f1 fc e1 bd cf 0e 5f 3d 41 a1 9b 3c 2c da 19 bd
       -0.11034573 0.054457482 0.01899779 -0.03756158
000150 c6 2a 61 3d 9a e0 62 3d 26 a3 21 3d 45 bb 97 bc
       0.054972433 0.055389978 0.03946223 -0.018521914
000160 1e a4 e4 bc 5c ea 38 3c 81 d1 af bc 31 44 26 bd
       -0.027910288 0.011286344 -0.021462204 -0.040592376
000170 e0 a2 50 3d 66 dc 9b 3d 2d e8 46 bc 4f 05 d3 bc
       0.05093658 0.07610397 -0.012140316 -0.025759367
000180 98 d6 b9 bc 3d c8 94 bc 75 a9 62 3c c2 b2 17 3d
       -0.022685334 -0.018161887 0.013834347 0.03703571
000190 68 71 ca bd 93 dc 20 bd 4e 84 b0 3d a9 c5 25 3d
       -0.09884912 -0.039272856 0.08618985 0.040471707
0001a0 bd 09 88 bb f7 ca b5 bd f2 15 95 bd a7 b2 cd bd
       -0.0041515515 -0.08876603 -0.07279576 -0.10043841
0001b0 d0 9c 11 bd ae 6b df 3c 03 0f 6d 3d b5 0c 45 3d
       -0.03554994 0.027273025 0.057875644 0.04810782
0001c0 f1 0d cc bd f0 78 8f bd f2 ee b7 bc 2c 05 c6 3d
       -0.099635966 -0.07005489 -0.022452805 0.09668955
0001d0 c6 a0 3b 3b b2 f5 b4 bb ab 19 3d 3d c8 30 2e bd
       0.0028629764 -0.005522453 0.046167057 -0.04252699
0001e0 7e e8 8b bd a2 6d 8d 3d 9d dd 66 bd 95 04 c9 bc
       -0.06831454 0.069056764 -0.05636369 -0.024538318
0001f0 33 47 e6 bd 08 52 79 3d 13 f1 95 3d 44 7e 20 3d
       -0.11244049 0.060869247 0.07321372 0.039182916
000200 3e ce 9b bd 3c 28 f8 bd 34 a5 bb bd 22 ea 9a 3d
       -0.07607697 -0.12117049 -0.09162369 0.075641885
000210 28 e1 1d 3d ba 57 b4 3d 4a 48 61 3d 4a eb d9 3c
       0.038544804 0.08805795 0.05500058 0.026601452
000220 da b4 99 ba 50 2a a4 bd 27 d3 b8 bd 02 c3 c9 bd
       -0.0011726872 -0.08015883 -0.09024649 -0.09851648
000230 43 26 31 3d 5c b7 53 bd 6c 50 ae bc 21 38 78 bd
       0.04324938 -0.051688537 -0.021278583 -0.060600404
000240 12 c1 06 bd 97 a8 a1 bd 6f dc 98 bd 56 01 ff 3c
       -0.03289897 -0.07893484 -0.07463919 0.031128567
000250 d7 cd 14 bd 6b 99 75 3d b0 ac 25 bd f6 67 b7 bd
       -0.036329117 0.059960764 -0.04044789 -0.08955376
000260 3c 74 f5 bc e9 f7 47 bd d1 c6 0d bd 88 50 ce bd
       -0.029962651 -0.04882041 -0.034613434 -0.10073954
000270 98 ad 73 3d 7c a4 99 bd 29 3a 58 3d f1 f4 4f 3d
       0.059491724 -0.07502076 0.05278984 0.050770704
000280 08 97 99 3d 7b bc a6 bd 73 bd 76 3d 2f 9b 4a bd
       0.0749951 -0.081414185 0.060239267 -0.0494644
000290 59 4b 25 3d 33 63 9b 3d af 87 b0 bc 67 73 04 bb
       0.04035506 0.0758728 -0.021549074 -0.0020210387
0002a0 d6 5c f8 bc 56 12 b5 bd fb c8 4f 3d a4 4e d6 bd
       -0.030317705 -0.08841388 0.05072878 -0.10464218
0002b0 6a ff 85 3d 8f 93 a1 3d 2c 1f cc 3d d4 e1 cb bc
       0.06542857 0.07889473 0.09966883 -0.024887957
0002c0 1c 6a b1 bd 5c 24 c2 3c 84 83 6e 3d 18 e1 d6 bd
       -0.08662817 0.023698978 0.05823089 -0.10492152
0002d0 ea aa 25 bd e3 d9 83 bd 90 6a e6 bc 19 4e e3 bc
       -0.0404462 -0.06438043 -0.028126985 -0.0277472
0002e0 5d db 2e bc cb a4 b6 bc a6 95 8e bd 3f c7 b1 3d
       -0.0106724175 -0.022295376 -0.06962137 0.08680581
0002f0 2b de e4 3d 38 73 7d bc b5 a9 a9 bc d5 4d 75 bd
       0.11175188 -0.015469365 -0.020710805 -0.05988868
000300 71 4d a1 bd 9b ec b3 bd b2 be 42 3d de 78 a0 3c
       -0.07876099 -0.08785363 0.047545142 0.019588884
000310 b7 e8 ff bb 70 86 ac 3d 73 97 9d bd c5 b2 c5 bd
       -0.007809724 0.084240794 -0.07694902 -0.09653238
000320 4b ee 87 bd 65 ef 2d bd 9d 69 8c bd 6a 19 b2 bd
       -0.06637248 -0.042464633 -0.06856082 -0.086962536
000330 f0 40 f5 bd 66 41 9b 3d cf d5 25 bd 76 b0 72 bd
       -0.119752765 0.07580833 -0.040487107 -0.059250318
000340 06 42 fc bd d5 ec 29 bd 9a 64 ee 3d 82 8d 12 3e
       -0.123172805 -0.041485626 0.11640282 0.14311793
000350 ce ab 8e bd 9f 74 94 3d 3b 9c 28 3e e4 90 4e 3d
       -0.06966363 0.07248806 0.16465847 0.050431147
000360 08 52 92 3d a2 a9 d5 3d 4a a2 be bc ee b7 d0 3c
       0.071445525 0.104327455 -0.023270745 0.02547833
000370 5f 49 8b bd f2 ad a3 bc 24 fe bc 3d 33 4a 8b 3d
       -0.06801104 -0.019980405 0.09228161 0.06801262
000380 e8 a7 35 bd b5 de ab bd e4 26 94 bd 3f 98 d4 bd
       -0.04434958 -0.08392087 -0.0723398 -0.10380601
000390 16 57 a6 bd 57 95 ce bc af 4f 92 3d 72 6f 92 3c
       -0.08122079 -0.025217695 0.07144105 0.017875407
0003a0 12 22 a5 bd 62 84 ac bd d6 27 c7 3c 8b d8 de bd
       -0.08063139 -0.084236875 0.024310987 -0.10881146
0003b0 c5 fe 31 bd fc a4 26 3d fb 5d 88 bd 5a 27 0d bd
       -0.043455858 0.040684685 -0.0665855 -0.034461357
0003c0 ac 8c 88 bc de c8 f9 bc b3 0d 84 bd 0b b4 cc bd
       -0.01666864 -0.030491289 -0.064479254 -0.09995278
0003d0 a3 8b ae bd 12 5d 62 bd 1e 39 15 3e fc 1e 14 3c
       -0.08522727 -0.05526454 0.1457257 0.00904059
0003e0 32 69 61 bc 1e 36 14 3d 3f 14 9b 3c 88 c1 40 3d
       -0.013757991 0.036184423 0.018930553 0.047059566
0003f0 74 b1 98 3d 0e 9d 7b 3d e0 73 dc bd 85 66 76 3d
       0.074557215 0.061429076 -0.10764289 0.060156364

block_1.2.bias f4 [10]
000000 58 04 cd 3b 11 d8 a4 bd 04 1c 9a bd 59 79 09 3f
       0.0062566213 -0.08049024 -0.07524875 0.53700787
000010 47 97 a3 bd 7c f0 60 3d c6 f1 27 3e f0 6e 94 be
       -0.07987838 0.054916844 0.16400823 -0.2899089
000020 50 cc 18 3e 5c 0c b4 bc
       0.14921689 -0.02197855

block_2.0.weight f4 [10, 10, 3, 3]
000000 d4 31 23 bc 74 be be be 9f 3e 3c bd 95 3a 20 be
       -0.00996061 -0.3725468 -0.045958158 -0.15647347
000010 96 12 01 be 10 25 38 3e d5 2d 97 3a 3f 0f 8e 3e
       -0.12604746 0.17982888 0.0011534045 0.27746007
000020 3b 3e 0a 3e 0d 4e 6c 3d b5 1f c6 bd 14 5a 26 bd
       0.13500302 0.057691623 -0.096740164 -0.04061325
000030 92 5b ba bd cc 9a 86 bd 8a d8 6e 3d 9d 04 9c bc
       -0.09099497 -0.06572494 0.058311976 -0.019045169
000040 ea de 46 3d 5c 16 80 bd ca b1 0e 3d 49 16 3d bd
       0.04855243 -0.06254265 0.03483752 -0.04616383
000050 3b 53 5d 3d 5f 2b 2d bd 95 c1 f0 bc 26 23 ca bd
       0.054034453 -0.04227769 -0.029389182 -0.09869985
000060 05 0f 02 3c ac f7 eb 3d 87 5d 83 3d 49 48 ae be
       0.007938151 0.11521849 0.06414323 -0.34039524
000070 fe 26 06 3e 4f 81 f1 bd e5 d5 e5 bd 5c b6 aa 3e
       0.13100812 -0.11792242 -0.11222438 0.33342254
000080 f3 d0 5b bc fc b3 26 3e 37 b2 bb 3c 2a ad df bc
       -0.013416517 0.16279596 0.022912128 -0.02730425
000090 cc e7 99 3b 65 71 82 3c e3 7c 03 3d 57 76 06 bd
       0.004696822 0.015923211 0.032101523 -0.0328277
0000a0 ec 2d d6 3d c3 64 d4 bc 21 a8 74 bd 65 f7 e8 bc
       0.10457978 -0.025926953 -0.059730653 -0.02843828
0000b0 1c 54 bb 3d dd 25 e0 bd 3d ec 40 3e 9c cd dc bb
       0.09146902 -0.10944722 0.18840118 -0.0067383777
0000c0 da aa a0 bd 98 d6 1a be 75 db 89 be 5a 9f 4d 3e
       -0.07845087 -0.15120924 -0.26925245 0.20080319
0000d0 a3 85 cd 3d 10 ba 26 be cb 95 93 be 1b a0 9e bd
       0.10035255 -0.16281915 -0.2882522 -0.077453814
0000e0 b8 2c c9 bd 58 56 fc bb 6c 0f 9b 3e f7 44 28 3d
       -0.098229825 -0.0077007227 0.30285203 0.041081395
0000f0 6c 1c 27 3f ab 9f 2b 3e 13 fe 84 bd bd 87 7a be
       0.65277743 0.16760127 -0.06493773 -0.24465843
000100 6b 21 8f bd d4 6e 7c 3d 84 b1 80 3d 0c 13 ab bc
       -0.06988796 0.06162913 0.062838584 -0.020883106
000110 e7 f3 40 be 57 5d 80 3e 2b d6 4e be a8 85 48 be
       -0.18843041 0.25071213 -0.20198886 -0.19582236
000120 89 a8 74 bd f1 1c 15 be 66 2b 36 be 1c 3a e2 3d
       -0.05973104 -0.14561822 -0.17789993 0.1104624
000130 e2 55 9e 3e cc 87 a7 bd b3 f5 4a 3e b9 91 02 bd
       0.30924898 -0.08180198 0.1982029 -0.031877253
000140 a2 43 98 bd d3 44 d7 3d aa 58 37 3d 99 a6 61 be
       -0.07434775 0.10511174 0.04476229 -0.22036208
000150 16 3e 05 3d a6 c6 92 3e 0c ab 21 be db d0 b2 ba
       0.032529913 0.28667182 -0.15787905 -0.0013642566
000160 f6 9e 0e 3f f8 42 3b bd 35 89 de 3d 59 d0 9f be
       0.55711305 -0.045718163 0.10866014 -0.31213644
000170 c0 31 65 be 07 cc a0 3e fc 07 d7 be 4a 5a 5a be
       -0.2238226 0.3140566 -0.4199828 -0.21323505
000180 66 a4 21 be 83 7b 63 3e 0a 67 aa bd 1b 92 12 3d
       -0.1578537 0.22215085 -0.083204344 0.03578387
000190 de 7c 30 bd 3d 7a d8 bd a8 fb 3e bd b1 f2 ab 3d
       -0.043087833 -0.1057019 -0.046626717 0.08395899
0001a0 30 60 60 bc 36 b2 ff 3c 10 26 48 bd 0a 4f 9b 3d
       -0.013694808 0.031212907 -0.048864424 0.07583435
0001b0 f3 8e 27 3e 9b af ff 3d 56 49 97 bc 5f 43 04 be
       0.16363125 0.12484666 -0.018467586 -0.12916325
0001c0 51 4d 55 bd 93 ea 18 be 7a 75 99 3d 40 13 ec bd
       -0.052075688 -0.14933233 0.0749311 -0.11527109
0001d0 e0 26 33 3d f1 6d 38 be 49 8f c8 3e f0 6f a0 3e
       0.043738246 -0.1801069 0.39171818 0.31335402
0001e0 a9 67 d6 be 4b ae 58 3f 47 9a a8 3e 74 4d 88 bf
       -0.4187596 0.8464095 0.32930204 -1.0648637
0001f0 9a 9f 88 be 45 71 70 3e c2 28 dc 3c 4d c9 27 3e
       -0.26684266 0.23480709 0.026874904 0.16385384
000200 0a ce 1e bd d8 33 24 bd af 33 4f bc f9 81 82 3b
       -0.038770713 -0.040088505 -0.0126466 0.003982779
000210 c7 08 4a 3c 25 5b e2 bd 9b 48 4f bc f5 94 4d be
       0.012331194 -0.11052541 -0.012651588 -0.20076354
000220 17 9f 62 be f3 2a 24 3e 3c 95 1e 3e 9f 2b 31 bd
       -0.22131 0.16032009 0.15486616 -0.04325449
000230 ec c3 82 3e 64 c1 a5 3e cd 15 f5 bb 9d dd 33 bd
       0.25540102 0.32374108 -0.0074794055 -0.04391252
000240 66 fb ca be e3 32 6a 3e c1 6c 6c 3e 21 56 66 bf
       -0.39644927 0.22870974 0.23088361 -0.8997517
000250 93 8c 98 3e 0f f2 dd 3e c1 a5 a7 be f7 5c 38 3e
       0.2979475 0.4334874 -0.32743648 0.18004213
000260 b7 39 c5 bd cf 53 8b 3e dd 57 cf be e7 ff 8c be
       -0.09630149 0.27212378 -0.40496722 -0.27538988
000270 f5 73 de be f7 72 ea be b0 7b 48 bc e7 de 61 be
       -0.43447843 -0.45790836 -0.012236521 -0.22057687
000280 1e 60 a9 be cd 33 dc bd 27 6e 8a be 0a c3 8b 3e
       -0.33081144 -0.10752068 -0.27037165 0.2729724
000290 4d 7e 1f 3f 0d 52 e6 be e5 9f d4 3e 5f 3b 12 3e
       0.62302095 -0.44984475 0.4152824 0.14280461
0002a0 de 4e b4 be 69 66 66 3d 0c d2 a2 be eb 2d 9d 3e
       -0.3521642 0.05625001 -0.31800878 0.30699095
0002b0 33 d5 92 bd ab 07 99 be 13 c3 d5 3e 69 3d 9c 3e
       -0.07169571 -0.29888663 0.41750392 0.30515602
0002c0 db 93 b3 bd dd 2c af be 85 92 b7 3d 0e db 53 3e
       -0.087684356 -0.34213915 0.08963493 0.20689031
0002d0 61 45 08 bb 28 a3 d7 3d 5c cd b5 3d 88 53 db 3d
       -0.0020793306 0.105291665 0.0887706 0.10709292
0002e0 25 4f 3f bd 07 9f cd bd ef 1a 9d bc 63 b9 23 bd
       -0.046706337 -0.10040098 -0.019177882 -0.03997172
0002f0 1c 05 67 bd b5 3f d4 bc 23 5f 5b bd 6d 3e 08 bd
       -0.056401357 -0.025909284 -0.053557526 -0.03326266
000300 a7 a3 18 bd c8 6f d6 3d d4 ab 24 bd 3b e1 9a bd
       -0.037265446 0.10470539 -0.04020293 -0.075624906
000310 9c 22 32 3d 47 52 a2 bb 68 a2 9c 3d 0a 47 91 3d
       0.043490037 -0.004953656 0.07648164 0.07093628
000320 5e ca ae 3d 5a fd a4 bd 08 f5 a1 3d 46 da b3 3d
       0.08534692 -0.080561355 0.07908064 0.08781867
000330 d6 5c 5b bd 0e e4 ce 3d cf f9 a7 3d 83 69 0c be
       -0.053555332 0.10102092 0.08201944 -0.13712125
000340 12 2e 0c 3e e5 18 ea bd 44 30 8b be 29 6f b8 3d
       0.1368945 -0.114305295 -0.2718526 0.09005577
000350 89 3f 38 3e c8 b7 a1 be 4f 6e b1 bd be a0 e0 bd
       0.17992987 -0.31585526 -0.08663618 -0.10968159
000360 96 8f ad 3d 86 c4 d1 3d 36 b4 d9 3c b2 48 82 bd
       0.084746525 0.10242562 0.02657519 -0.06361522
000370 9c 0f 80 3d 4b 11 92 3c 34 2b 1e 3c 97 5f d5 3c
       0.06252977 0.017830512 0.009653855 0.026046557
000380 33 a3 5d 3d ba b0 67 3d 6c b6 85 bd e0 f9 bf 3a
       0.054110717 0.056565024 -0.06528935 0.0014646612
000390 dc e8 26 bc e5 69 06 3e eb e6 0d 3e 29 f3 01 be
       -0.010187354 0.13126333 0.1385762 -0.12690414
0003a0 80 e3 67 be 5d 4a aa 37 87 eb 9b 3d 8b de c0 bc
       -0.22645378 2.0300207e-05 0.07613283 -0.023543617
0003b0 b3 76 bb bc ee 32 e8 3c 20 88 8b bd ee 70 ac 3d
       -0.022883749 0.028344598 -0.06813073 0.08419977
0003c0 71 c6 73 be 2b bd 2f be 91 e5 a7 bd 55 5a 9e 3c
       -0.23806168 -0.17162006 -0.08198083 0.019330183
0003d0 a2 8c 35 3b a7 54 ed 3d e6 61 34 3d f8 72 12 3e
       0.0027702232 0.11588412 0.044038676 0.1430167
0003e0 24 55 a0 bd 34 5e 43 be a1 4d a2 bc 92 bb 85 3c
       -0.07828739 -0.19078904 -0.019812407 0.016324792
0003f0 6e cc 13 be 16 33 c7 bd ce 0b be 3d 16 f3 f2 ba
       -0.14433452 -0.09726541 0.09279595 -0.001853558

block_2.0.bias f4 [10]
000000 25 40 8e be 38 50 68 3e 1b 13 e1 bd 4f d9 f6 3d
       -0.27783313 0.22686851 -0.10989972 0.12053167
000010 df 22 ca be a6 a4 88 bd db c5 09 3f 76 55 4c 3f
       -0.3947973 -0.06672029 0.5381753 0.79817903
000020 15 7d 45 3f 61 3e 3b 3d
       0.77143985 0.045713786

block_2.2.weight f4 [10, 10, 3, 3]
000000 e7 22 87 be 2b 24 74 be ec 9e 02 bd 8a 39 0b be
       -0.26393816 -0.23841922 -0.03188984 -0.13596168
000010 0e 78 a6 bd 52 eb 36 3d c0 a2 b8 bd 9c ee 01 bd
       -0.08128367 0.044658013 -0.09015417 -0.031721696
000020 f4 f2 17 be e4 40 58 bb 08 05 8f be 89 8f b2 be
       -0.14838773 -0.0032997662 -0.27933526 -0.34875134
000030 f1 bd 9d be 80 1c 10 3e d5 5b 0c bf 82 ca b3 3e
       -0.30808976 0.14073372 -0.54827625 0.3511544
000040 c6 ff c7 3d f1 59 61 bf 19 16 95 be 1c 98 b1 bd
       0.09765582 -0.88027865 -0.29118422 -0.08671591
000050 8d 3a 46 3d d9 e1 e8 be 40 42 69 bc 1a 86 b3 3c
       0.048395682 -0.45484808 -0.014236987 0.02191453
000060 45 53 f7 bc 41 5f 02 3d 65 de 00 bd 3e a2 a3 3c
       -0.030191073 0.031829122 -0.031462092 0.019974824
000070 4a 35 95 3e d1 16 5e be 05 56 47 bd 8a e0 3c 3e
       0.2914222 -0.21688391 -0.04866602 0.1844503
000080 49 b6 cc be b8 cd e6 bd a4 96 35 3e 02 49 b0 be
       -0.39982823 -0.112697065 0.17733246 -0.344307
000090 2f 9c 41 be a3 22 60 be aa fb 1a be 89 a8 84 3d
       -0.18907236 -0.21888213 -0.15135065 0.06477458
0000a0 3d cd 24 bd c9 f4 04 be 18 bc f3 bc e9 4e ef bd
       -0.040234793 -0.12984003 -0.029752776 -0.11684973
0000b0 72 cc d4 be 75 e4 a8 bd fe 83 b7 bd f0 1f 57 bd
       -0.4156223 -0.082467 -0.089607224 -0.052520692
0000c0 18 f6 a2 3d 26 89 01 3b 3e 3c 65 3b 84 af 50 3c
       0.07957095 0.0019765585 0.0034978534 0.012737159
0000d0 c5 12 76 be 8f 5a b8 bc 2d b3 12 be 21 b7 f0 3d
       -0.24030598 -0.02250412 -0.14326163 0.11753679
0000e0 f2 3b b6 be 84 38 35 be 84 be 9f 3d b3 92 02 3e
       -0.3559261 -0.1769734 0.0780001 0.12751274
0000f0 27 b8 1d bf b8 e3 1a 3e 6e e9 07 3f 58 03 a7 3e
       -0.6160912 0.1512593 0.5309056 0.3261974
000100 23 ca 52 3e 8d 65 81 be e0 bf 42 3a d7 71 a8 bc
       0.20584922 -0.2527279 0.00074291043 -0.020562096
000110 8c c9 06 be eb 69 20 be 37 84 bd bd 07 99 d5 bd
       -0.13162822 -0.15665404 -0.092537336 -0.10429578
000120 11 66 d0 3e ab 61 e2 bd d8 0d 15 3e 2b eb d6 bd
       0.4070287 -0.11053785 0.14556062 -0.104940735
000130 71 81 0c bf fe 4d 18 3e d0 17 9f be 58 a0 41 bf
       -0.5488501 0.14873502 -0.31072855 -0.7563529
000140 88 c9 d0 be 9c 9a 34 be 66 c4 5a 3d 43 a5 14 be
       -0.40778756 -0.17637104 0.053409956 -0.14516167
000150 80 7f 37 bc f0 ff ee bd 4b a0 10 be 39 b0 4e 3e
       -0.011199832 -0.1166991 -0.14123647 0.20184411
000160 5f 4f 97 bc 5c fd ab bd da 93 f0 3d 10 2f 3f 3e
       -0.018470464 -0.08397934 0.117469504 0.18670297
000170 62 d9 ba bd 21 c2 e3 bd 06 11 e7 3e 55 f3 cb be
       -0.09123494 -0.111210115 0.45130175 -0.39834085
000180 dc 90 7d bd cd d0 94 3c 06 d4 0c be 62 c6 76 3b
       -0.061905727 0.01816597 -0.13752756 0.0037654866
000190 e0 97 e4 bd 84 28 cd bd ad b3 95 bd 07 ea 65 be
       -0.1116178 -0.10017493 -0.07309661 -0.22452556
0001a0 20 4e e7 3e 16 a1 fa be 65 96 1e bf a6 7d 89 3e
       0.45176792 -0.48951024 -0.61948234 0.26853675
0001b0 2c 18 04 bd d8 25 11 bd 87 50 1a 3e 99 2e 82 3e
       -0.032249615 -0.03543648 0.15069781 0.25426176
0001c0 0a 93 69 bd 7f 67 1f 3d e7 6d a8 bd 4c 05 51 be
       -0.057024993 0.03891706 -0.08224087 -0.20412177
0001d0 0f 4e 2d bd 49 51 de 3d d4 d5 82 be b5 b1 ff 3c
       -0.04231077 0.10855348 -0.25553763 0.031212667
0001e0 41 64 d0 3e d1 6d 18 bf 3c 0d a2 be 8b 28 b6 3c
       0.40701488 -0.59542567 -0.31650722 0.02223613
0001f0 c7 73 8f be 9c 02 49 be c7 9b f8 bd b2 81 0e be
       -0.2801802 -0.19629902 -0.12139087 -0.13916662
000200 ae 16 3a 3b 27 d2 d3 bd 09 ee 40 bc d5 66 1a 3e
       0.0028394866 -0.10342818 -0.011775502 0.1507829
000210 5b 28 f6 bc 78 bc 10 be b4 ca 8e bd 78 e2 11 be
       -0.03004854 -0.14134395 -0.06972256 -0.14246547
000220 07 d7 1f be 51 ec f8 3c 32 76 d6 bd ee f7 81 be
       -0.1560937 0.030386122 -0.10471763 -0.25384468
000230 61 0b 5d 3e b8 ae 3d 3e 26 da de 3d 8f c4 7c 3e
       0.21586372 0.18523681 0.10881452 0.24684356
000240 d8 92 21 be 59 f1 ab bc 7f dd 43 3e 45 d2 b7 be
       -0.15778673 -0.020989107 0.19127463 -0.3590261
000250 ac ca d6 3e 19 ac 6e bd 4e 81 2b be 3a 10 ef 3e
       0.419515 -0.058269594 -0.16748545 0.46692067
000260 57 02 00 be 6a 2d 83 3e ff b6 53 be ff 2e 40 3e
       -0.12500893 0.25620586 -0.20675276 0.18767928
000270 6f 6d 60 3e 69 a3 28 bf fc 0f 57 be 3e c9 8b bd
       0.21916746 -0.65874344 -0.21002191 -0.06825493
000280 ba 59 1d bf e4 52 9a 3e 27 c0 3e 3d 72 6f 03 bf
       -0.61465037 0.30141366 0.04656997 -0.5134193
000290 91 9d 0d 3e 92 35 d1 3e 55 8e 41 3e d3 42 95 be
       0.13829638 0.40861183 0.18901952 -0.29152545
0002a0 dd 3a 0c 3d a4 f8 e0 3e 0f 38 84 be 25 3a 03 be
       0.034235824 0.43939698 -0.2582402 -0.12815149
0002b0 83 30 f7 3d 37 ec 83 3e c8 32 15 be 68 9f a8 be
       0.120698 0.25766155 -0.14570153 -0.32934117
0002c0 7f a6 51 be a6 ca 8d bd 3c ec 2e be 62 3c 62 be
       -0.2047367 -0.06923418 -0.17082304 -0.22093347
0002d0 6f 3f 84 3e 63 e4 18 3e 71 63 0d bd a7 ab 83 3c
       0.25829646 0.14930873 -0.034518663 0.016073061
0002e0 10 9b 85 3d 02 c6 93 be 72 37 84 be 16 99 38 bc
       0.065237164 -0.28862005 -0.2582355 -0.011266967
0002f0 69 a0 db 3d af 38 87 be ce 84 56 be 20 71 1c bf
       0.10723955 -0.26410434 -0.20949098 -0.61110115
000300 aa 47 38 bf 1b 30 f3 3e d1 ec ab bd d5 2a 33 bd
       -0.7198435 0.4749764 -0.083947785 -0.04374202
000310 29 59 a5 bd bb 25 b1 3e f3 21 a0 bc 0e ef b6 bc
       -0.080736466 0.345991 -0.019547438 -0.022330787
000320 c2 2b a4 ba 14 32 ea bc de 8d 11 3e 4f a1 1c 3e
       -0.0012525248 -0.028588332 0.14214274 0.1529591
000330 d2 65 14 bb 59 f4 13 be e6 94 90 3e 5a aa 2b bf
       -0.0022643697 -0.1444868 0.282386 -0.6705681
000340 30 09 39 3e 41 6f 04 3d dd 83 87 3c d6 89 1e 3d
       0.18069911 0.032332662 0.01654237 0.03870567
000350 9b de 9d 3e 25 e8 50 3e 80 fd 59 bd 13 e1 cf bc
       0.30833897 0.20401056 -0.053220272 -0.025375878
000360 5a b0 6e 3d fc 71 94 3d e1 e5 95 bd c2 2a 32 be
       0.05827365 0.07248303 -0.073192365 -0.17399123
000370 8d 4b 79 3e 07 d5 17 be b9 c4 60 3d 29 4e 2e 3e
       0.24345227 -0.14827357 0.05487511 0.17022003
000380 55 70 e8 bd c6 4d 86 3e 40 0b 6f 3c b7 d3 6e be
       -0.11349551 0.2623121 0.014590085 -0.2332295
000390 fc f2 2b 3e cf db ee 3d f8 6d 32 3d d0 01 a1 3b
       0.1679191 0.11663019 0.043561906 0.004913546
0003a0 74 15 53 bd 29 c1 1d be 97 92 d6 be 1a 55 54 be
       -0.05153413 -0.15405716 -0.41908714 -0.20735589
0003b0 f4 95 99 3e 3d 7c da be 06 86 a9 bd 3d e1 e0 bd
       0.29997218 -0.4267291 -0.08277516 -0.10980461
0003c0 96 cb 42 be 8e 11 e5 b9 9f be 2a be ca 99 7f be
       -0.19022974 -0.00043691363 -0.16674279 -0.2496101
0003d0 70 18 8f 3e 45 ad c9 3c 3c fb 00 bf f9 3d f4 3e
       0.27948332 0.024618754 -0.50383353 0.4770353
0003e0 d7 8c 63 be 70 b9 da bd 27 19 c1 be 67 d1 62 3c
       -0.22221695 -0.10679901 -0.37714502 0.013843871
0003f0 3b 35 82 bd 4d 3e c7 be c7 95 a0 3e b6 c6 89 3d
       -0.06357809 -0.3891472 0.3136427 0.06727354

block_2.2.bias f4 [10]
000000 de ab c6 3e f3 22 08 bf 33 60 a2 3e fc 78 d9 3c
       0.38803 -0.5317833 0.3171402 0.026546948
000010 81 ca 81 be f6 f7 d5 3d 54 4b ed 3d e7 23 14 be
       -0.2534981 0.104476854 0.11586633 -0.1446682
000020 9d 12 93 be a2 91 4f 3c
       -0.28725138 0.012668999

classifier.1.weight f4 [10, 490]
000000 61 04 ef bd 72 fb dd bd 47 89 6a 3d a8 cf c3 bd
       -0.11670757 -0.10838975 0.057259824 -0.09561092
000010 31 98 46 3e 9f 85 7c 3a 69 13 c5 3d c7 34 0c 3e
       0.19393994 0.0009632948 0.09622843 0.13692008
000020 2d 9e ab 3e ec 4f 24 3e 0a c7 dd be a7 ec b9 3c
       0.33519116 0.16046113 -0.43315917 0.022695852
000030 1d 72 05 3e c5 d1 c7 3d c6 e2 a2 3d 0d 0c 02 3e
       0.13031812 0.09756807 0.0795341 0.1269991
000040 72 f4 c1 3d 87 48 81 be 73 6f 41 3d 35 23 16 3d
       0.09470452 -0.25250646 0.047225427 0.03665467
000050 e2 c2 11 be 84 21 e4 bc bf bd e8 3d e3 58 ba bd
       -0.14234498 -0.027848013 0.11364316 -0.09098985
000060 3e a2 08 bd a7 30 11 3d 9d 8f 11 3d e0 6e d9 bd
       -0.03335785 0.03544679 0.03553735 -0.10616851
000070 59 a6 c4 bd 22 ed 7a bd 17 c5 a3 bc 9e 80 61 3d
       -0.09602041 -0.061261304 -0.01999144 0.0550543
000080 2b d3 25 3e 0c a0 b3 3c 14 9c 00 3d e7 e6 22 3c
       0.16193835 0.021926902 0.031398848 0.009942747
000090 c1 83 08 be 6d 57 c2 3d 39 cd 3b be 21 96 53 bd
       -0.1333151 0.094893314 -0.18340005 -0.051656846
0000a0 aa 3b 01 3e 6f 59 28 be 47 d8 30 3e 14 47 8c be
       0.12620416 -0.16440366 0.17270003 -0.27397978
0000b0 cc 08 78 be 5d 84 9d bc ab 5f 94 3d 2a c1 b2 3e
       -0.24222106 -0.019228155 0.0724481 0.34912997
0000c0 0b 72 8b 3b 48 7b e3 3c 27 03 06 3f 79 1b 61 be
       0.0042555383 0.027768746 0.5234856 -0.21983136
0000d0 70 05 1f be 27 39 3d be 1e 41 1e 3d 28 61 4e 3e
       -0.15529418 -0.18478833 0.03863632 0.2015425
0000e0 02 ee aa 3d 3d 29 11 be 29 4f 54 bd 20 18 68 3c
       0.08346178 -0.14175887 -0.051833306 0.014165908
0000f0 fd 93 be bd 3e 17 23 bb 42 f5 78 bd a8 4e b9 bd
       -0.0930557 -0.002488568 -0.06078077 -0.090482056
000100 74 ed 88 3e 19 09 84 bc 6a 5f 9b bc a8 ee 22 3d
       0.26743662 -0.01611762 -0.018966395 0.03977838
000110 11 26 a5 3e 48 9b 99 bd b8 c8 69 bc ae ec 90 bd
       0.32255605 -0.07500321 -0.0142690465 -0.07076393
000120 45 28 36 bd e8 6e 07 be c8 4d de 3d 2f d8 bc 3d
       -0.044471998 -0.13225901 0.10854679 0.09220921
000130 f6 a4 73 3d 68 63 ae 3d 57 92 a4 3d 96 c9 38 be
       0.05948349 0.08515054 0.080357246 -0.18045649
000140 03 2b b3 bd aa b9 bd 3d ea 3d 07 3e 76 5a c0 bd
       -0.08748438 0.09263928 0.13207212 -0.09392254
000150 83 53 24 be 25 b2 88 bc cf 9d 8d bc 26 df 24 bc
       -0.16047482 -0.016686508 -0.017287163 -0.010062968
000160 2e 80 68 bb c5 09 cb bd f0 87 9d bd 73 be 5e bd
       -0.0035476792 -0.09913973 -0.07691944 -0.054380845
000170 e6 d5 33 bd 65 f3 ba 3e b5 2a 64 bd 11 c2 4a bd
       -0.04390516 0.3651382 -0.05570479 -0.049501482
000180 23 8b 09 be 7d 36 4d bc a9 ae e7 3d 4a 13 b9 3d
       -0.13431983 -0.012525198 0.11312611 0.09036882
000190 69 4f 8e 3d 77 10 bd 3d ab d4 49 bd ff 37 76 3d
       0.0694874 0.09231656 -0.04927508 0.060111996
0001a0 d5 29 4e 3d dd 29 79 3e 98 87 57 bd 35 7b cc bc
       0.050332863 0.24332376 -0.052619547 -0.024961093
0001b0 26 34 02 3e 14 94 07 3e ea 43 fa 3d 63 97 62 bd
       0.12715206 0.13240081 0.12219985 -0.055320155
0001c0 c6 dd 16 3e da a5 01 3e 75 84 7e 3e 78 d7 bf bd
       0.14733037 0.12660924 0.24855216 -0.09367269
0001d0 c9 7d a9 3d 5e fc 91 bd 66 92 64 be aa b1 28 be
       0.08275945 -0.07128213 -0.22321472 -0.16474023
0001e0 8a a4 f5 bd 0b 4f a4 3d 30 0c 43 be 2e cb 25 be
       -0.11994274 0.08022889 -0.19047618 -0.16190788
0001f0 c6 ff 1f 3e 89 5b 02 3b 77 c8 cd be fc fd 9b bd
       0.15624914 0.0019890985 -0.40192005 -0.07616803
000200 58 0f 66 3d d3 d5 be bb 0a 50 9f bd cc 8a 34 3e
       0.056166977 -0.0058238297 -0.07778938 0.17631072
000210 10 53 bd 3d 7f 06 6a be c2 9c 9f 3d ef cc 12 bc
       0.092443585 -0.2285404 0.07793571 -0.008959993
000220 57 f5 41 bd 19 8a 2c be 86 85 ab bd 29 d5 1a 3e
       -0.047353115 -0.16849555 -0.08375077 0.15120377
000230 33 32 45 3d 39 94 be 3d 7e 86 08 3e 53 12 17 be
       0.048143577 0.09305615 0.13332555 -0.14753084
000240 c8 77 d8 3b da 55 89 be 4f b8 54 be 08 3f dd 3e
       0.006606076 -0.26823312 -0.20773433 0.43212152
000250 8a 4c 5c bd bf 4e 2f be dc 16 ca be 58 3f ec 3d
       -0.05378393 -0.17119883 -0.39470565 0.11535519
000260 1f f8 1f 3e e7 6a 40 bc e8 6a 37 be a7 64 13 bd
       0.15621994 -0.0117442375 -0.17911875 -0.03598466
000270 68 58 1f be 5b 48 ab bd 78 d4 eb 3d 53 8c 06 be
       -0.15561068 -0.0836341 0.115151346 -0.13139467
000280 a3 45 33 bd 50 ef 04 bd 8a 72 a3 bd 80 e6 9a bd
       -0.043767583 -0.03245479 -0.07980831 -0.07563496
000290 37 4b c2 3d 44 05 1e 3d 64 13 88 3d 59 ac 8f 3b
       0.09487002 0.03857924 0.066443235 0.004384559
0002a0 43 3d 84 3d c9 04 80 3d fd 71 b2 3c cc bd 15 bd
       0.06456997 0.06250913 0.02178287 -0.036557958
0002b0 13 3f 82 3d 4e 2d aa 3e c6 30 8c 3e c8 1c a8 3d
       0.06359687 0.3323769 0.2738096 0.082086146
0002c0 1b 80 7a 3d cc 67 98 bd b2 36 09 be 56 ab a2 bd
       0.061157327 -0.07441673 -0.13399771 -0.07942836
0002d0 f6 60 09 be f6 23 5b 3e 5a 8c 2e bd 87 f5 91 3e
       -0.13415894 0.21400437 -0.04261432 0.28507635
0002e0 01 28 20 3d a0 06 09 3d f5 cf b1 bc e0 af 94 bd
       0.03910065 0.033453584 -0.021705607 -0.07260108
0002f0 ef 68 38 3e 6c eb b3 bc 71 e6 d1 bd a0 16 34 be
       0.18008779 -0.021962844 -0.10249031 -0.17586756
000300 30 97 f7 bd 2a 24 69 be 27 b1 8e be 01 2d 04 3d
       -0.120893836 -0.22767702 -0.27869532 0.03226948
000310 eb cb f4 bc 8f 4e 4f bb 57 48 83 bd ba 56 1e be
       -0.029882392 -0.0031632518 -0.06410282 -0.15462771
000320 24 34 06 3d f9 60 45 ba f2 1d e7 3c 4b e7 94 3c
       0.03276457 -0.00075294037 0.028212521 0.018176695
000330 7c c5 5f be 6a af 31 3e ff e6 0c 3e 2e 15 6f bd
       -0.21852678 0.17352071 0.13759993 -0.058369808
000340 bb cd d1 bc 92 00 89 3b 33 a7 1f bd 48 32 7b 3e
       -0.025610795 0.004180976 -0.038977813 0.245309
000350 7d 15 bb 3d 34 dd e7 3d 00 ee 19 3d c8 9c 55 3e
       0.09134958 0.11321488 0.03758049 0.20860589
000360 24 11 14 3d e5 f6 ee 3d b1 d8 7b 3e 10 5c ba bd
       0.03614916 0.11668185 0.2459438 -0.09099591
000370 2f 12 2c be 96 2c 9c bd 05 cf 92 3e 22 d6 8b bc
       -0.16803811 -0.076256916 0.28673568 -0.01706988
000380 c7 eb 02 3e c6 15 45 bd dd be 9a bd 3a 72 68 3c
       0.12785254 -0.048116468 -0.075559355 0.01418739
000390 cf 19 27 be 17 42 55 bd 3f f8 89 bb 4b ce 88 bd
       -0.16318439 -0.05206498 -0.0042105014 -0.06679972
0003a0 f2 bd 90 3d ed 8e bd bc 5c 82 d4 3c 91 8a 50 bc
       0.07067479 -0.023139441 0.025941066 -0.012728349
0003b0 cc 63 e3 3d cd 7e e7 3a 82 3c de 3c 1c 81 17 be
       0.11103019 0.0017661691 0.027128462 -0.14795345
0003c0 f6 ca 3e 3e 80 20 8e bd dc 24 09 3d 0a 96 34 be
       0.18632111 -0.06939793 0.033482417 -0.1763536
0003d0 0c 9b b7 3c af 1b e2 ba df c6 58 3d 1a 11 a4 3d
       0.0224128 -0.0017250682 0.052924033 0.08011074
0003e0 f5 0d 8d 3d 3d 8f f7 3d 07 73 c2 3e 7b 40 4c 3e
       0.06887428 0.120878674 0.37978384 0.19946472
0003f0 59 0e 2c bc 78 06 66 be de db d1 3d 97 c0 18 3e
       -0.010501468 -0.22463405 0.102470145 0.14917217

classifier.1.bias f4 [10]
000000 ca 89 8d 3e f7 46 6a be ae 86 c3 3e 8d 15 dc 3d
       0.27644187 -0.22878633 0.3818869 0.10746298
000010 72 3c e6 be fa af b1 be 51 76 5b bd f5 6b d7 3d
       -0.4496799 -0.34704572 -0.053579632 0.10518638
000020 bd fe 86 3e b6 33 bd bd
       0.26366225 -0.09238379
